Using Theano backend.
50000 train samples
10000 test samples
____________________________________________________________________________________________________
Layer (type)                     Output Shape          Param #     Connected to                     
====================================================================================================
dense_1 (Dense)                  (None, 800)           2458400     dense_input_1[0][0]              
____________________________________________________________________________________________________
activation_1 (Activation)        (None, 800)           0           dense_1[0][0]                    
____________________________________________________________________________________________________
dropout_1 (Dropout)              (None, 800)           0           activation_1[0][0]               
____________________________________________________________________________________________________
dense_2 (Dense)                  (None, 400)           320400      dropout_1[0][0]                  
____________________________________________________________________________________________________
activation_2 (Activation)        (None, 400)           0           dense_2[0][0]                    
____________________________________________________________________________________________________
dropout_2 (Dropout)              (None, 400)           0           activation_2[0][0]               
____________________________________________________________________________________________________
dense_3 (Dense)                  (None, 100)           40100       dropout_2[0][0]                  
____________________________________________________________________________________________________
activation_3 (Activation)        (None, 100)           0           dense_3[0][0]                    
____________________________________________________________________________________________________
dropout_3 (Dropout)              (None, 100)           0           activation_3[0][0]               
____________________________________________________________________________________________________
dense_4 (Dense)                  (None, 10)            1010        dropout_3[0][0]                  
____________________________________________________________________________________________________
activation_4 (Activation)        (None, 10)            0           dense_4[0][0]                    
====================================================================================================
Total params: 2,819,910
Trainable params: 2,819,910
Non-trainable params: 0
____________________________________________________________________________________________________
Train on 50000 samples, validate on 10000 samples
Epoch 1/10
50000/50000 [==============================] - 211s - loss: 2.0645 - acc: 0.2428 - val_loss: 1.9558 - val_acc: 0.2828
…
