60000 train samples
10000 test samples
____________________________________________________________________________________________________
Layer (type)                     Output Shape          Param #     Connected to                     
====================================================================================================
dense_9 (Dense)                  (None, 800)           628000      dense_input_3[0][0]              
____________________________________________________________________________________________________
activation_9 (Activation)        (None, 800)           0           dense_9[0][0]                    
____________________________________________________________________________________________________
dropout_7 (Dropout)              (None, 800)           0           activation_9[0][0]               
____________________________________________________________________________________________________
dense_10 (Dense)                 (None, 400)           320400      dropout_7[0][0]                  
____________________________________________________________________________________________________
activation_10 (Activation)       (None, 400)           0           dense_10[0][0]                   
____________________________________________________________________________________________________
dropout_8 (Dropout)              (None, 400)           0           activation_10[0][0]              
____________________________________________________________________________________________________
dense_11 (Dense)                 (None, 100)           40100       dropout_8[0][0]                  
____________________________________________________________________________________________________
activation_11 (Activation)       (None, 100)           0           dense_11[0][0]                   
____________________________________________________________________________________________________
dropout_9 (Dropout)              (None, 100)           0           activation_11[0][0]              
____________________________________________________________________________________________________
dense_12 (Dense)                 (None, 10)            1010        dropout_9[0][0]                  
____________________________________________________________________________________________________
activation_12 (Activation)       (None, 10)            0           dense_12[0][0]                   
====================================================================================================
Total params: 989,510
Trainable params: 989,510
Non-trainable params: 0
____________________________________________________________________________________________________
Train on 60000 samples, validate on 10000 samples
Epoch 1/20
59936/60000 [============================>.] - ETA: 0s - loss: 0.2828 - acc: 0.9137 
…
