50000 train samples
10000 test samples
____________________________________________________________________________________________________
Layer (type)                     Output Shape          Param #     Connected to                     
====================================================================================================
dense_5 (Dense)                  (None, 800)           2458400     dense_input_2[0][0]              
____________________________________________________________________________________________________
activation_5 (Activation)        (None, 800)           0           dense_5[0][0]                    
____________________________________________________________________________________________________
dropout_4 (Dropout)              (None, 800)           0           activation_5[0][0]               
____________________________________________________________________________________________________
dense_6 (Dense)                  (None, 400)           320400      dropout_4[0][0]                  
____________________________________________________________________________________________________
activation_6 (Activation)        (None, 400)           0           dense_6[0][0]                    
____________________________________________________________________________________________________
dropout_5 (Dropout)              (None, 400)           0           activation_6[0][0]               
____________________________________________________________________________________________________
dense_7 (Dense)                  (None, 100)           40100       dropout_5[0][0]                  
____________________________________________________________________________________________________
activation_7 (Activation)        (None, 100)           0           dense_7[0][0]                    
____________________________________________________________________________________________________
dropout_6 (Dropout)              (None, 100)           0           activation_7[0][0]               
____________________________________________________________________________________________________
dense_8 (Dense)                  (None, 10)            1010        dropout_6[0][0]                  
____________________________________________________________________________________________________
activation_8 (Activation)        (None, 10)            0           dense_8[0][0]                    
====================================================================================================
Total params: 2,819,910
Trainable params: 2,819,910
Non-trainable params: 0
____________________________________________________________________________________________________
Train on 50000 samples, validate on 10000 samples
Epoch 1/20
50000/50000 [==============================] - 18s - loss: 2.0068 - acc: 0.2619 - val_loss: 1.9709 - val_acc: 0.2800
…
